…
2026-04-11 09:35:14 | INFO     | services.job_manager:250 - Job a16c3c05-9d24-4665-bd8f-71cbaab14db8 RECEIVED: Overriding model.yaml nc=80 with nc=1
2026-04-11 09:35:14 | INFO     | services.job_manager:250 - Job a16c3c05-9d24-4665-bd8f-71cbaab14db8 RECEIVED: 
2026-04-11 09:35:14 | INFO     | services.job_manager:250 - Job a16c3c05-9d24-4665-bd8f-71cbaab14db8 RECEIVED:                    from  n    params  module                                       arguments                     
2026-04-11 09:35:14 | INFO     | services.job_manager:250 - Job a16c3c05-9d24-4665-bd8f-71cbaab14db8 RECEIVED:   0                  -1  1       464  ultralytics.nn.modules.conv.Conv             [3, 16, 3, 2]                 
2026-04-11 09:35:14 | INFO     | services.job_manager:250 - Job a16c3c05-9d24-4665-bd8f-71cbaab14db8 RECEIVED:   1                  -1  1      4672  ultralytics.nn.modules.conv.Conv             [16, 32, 3, 2]                
2026-04-11 09:35:14 | INFO     | services.job_manager:250 - Job a16c3c05-9d24-4665-bd8f-71cbaab14db8 RECEIVED:   2                  -1  1      7360  ultralytics.nn.modules.block.C2f             [32, 32, 1, True]             
2026-04-11 09:35:14 | INFO     | services.job_manager:250 - Job a16c3c05-9d24-4665-bd8f-71cbaab14db8 RECEIVED:   3                  -1  1     18560  ultralytics.nn.modules.conv.Conv             [32, 64, 3, 2]                
2026-04-11 09:35:14 | INFO     | services.job_manager:250 - Job a16c3c05-9d24-4665-bd8f-71cbaab14db8 RECEIVED:   4                  -1  2     49664  ultralytics.nn.modules.block.C2f             [64, 64, 2, True]             
2026-04-11 09:35:14 | INFO     | services.job_manager:250 - Job a16c3c05-9d24-4665-bd8f-71cbaab14db8 RECEIVED:   5                  -1  1     73984  ultralytics.nn.modules.conv.Conv             [64, 128, 3, 2]               
2026-04-11 09:35:14 | INFO     | services.job_manager:250 - Job a16c3c05-9d24-4665-bd8f-71cbaab14db8 RECEIVED:   6                  -1  2    197632  ultralytics.nn.modules.block.C2f             [128, 128, 2, True]           
2026-04-11 09:35:14 | INFO     | services.job_manager:250 - Job a16c3c05-9d24-4665-bd8f-71cbaab14db8 RECEIVED:   7                  -1  1    295424  ultralytics.nn.modules.conv.Conv             [128, 256, 3, 2]              
2026-04-11 09:35:14 | INFO     | services.job_manager:250 - Job a16c3c05-9d24-4665-bd8f-71cbaab14db8 RECEIVED:   8                  -1  1    460288  ultralytics.nn.modules.block.C2f             [256, 256, 1, True]           
2026-04-11 09:35:14 | INFO     | services.job_manager:250 - Job a16c3c05-9d24-4665-bd8f-71cbaab14db8 RECEIVED:   9                  -1  1    164608  ultralytics.nn.modules.block.SPPF            [256, 256, 5]                 
2026-04-11 09:35:14 | INFO     | services.job_manager:250 - Job a16c3c05-9d24-4665-bd8f-71cbaab14db8 RECEIVED:  10                  -1  1         0  torch.nn.modules.upsampling.Upsample         [None, 2, 'nearest']          
2026-04-11 09:35:14 | INFO     | services.job_manager:250 - Job a16c3c05-9d24-4665-bd8f-71cbaab14db8 RECEIVED:  11             [-1, 6]  1         0  ultralytics.nn.modules.conv.Concat           [1]                           
2026-04-11 09:35:14 | INFO     | services.job_manager:250 - Job a16c3c05-9d24-4665-bd8f-71cbaab14db8 RECEIVED:  12                  -1  1    148224  ultralytics.nn.modules.block.C2f             [384, 128, 1]                 
2026-04-11 09:35:14 | INFO     | services.job_manager:250 - Job a16c3c05-9d24-4665-bd8f-71cbaab14db8 RECEIVED:  13                  -1  1         0  torch.nn.modules.upsampling.Upsample         [None, 2, 'nearest']          
2026-04-11 09:35:14 | INFO     | services.job_manager:250 - Job a16c3c05-9d24-4665-bd8f-71cbaab14db8 RECEIVED:  14             [-1, 4]  1         0  ultralytics.nn.modules.conv.Concat           [1]                           
2026-04-11 09:35:14 | INFO     | services.job_manager:250 - Job a16c3c05-9d24-4665-bd8f-71cbaab14db8 RECEIVED:  15                  -1  1     37248  ultralytics.nn.modules.block.C2f             [192, 64, 1]                  
2026-04-11 09:35:14 | INFO     | services.job_manager:250 - Job a16c3c05-9d24-4665-bd8f-71cbaab14db8 RECEIVED:  16                  -1  1     36992  ultralytics.nn.modules.conv.Conv             [64, 64, 3, 2]                
2026-04-11 09:35:14 | INFO     | services.job_manager:250 - Job a16c3c05-9d24-4665-bd8f-71cbaab14db8 RECEIVED:  17            [-1, 12]  1         0  ultralytics.nn.modules.conv.Concat           [1]                           
2026-04-11 09:35:14 | INFO     | services.job_manager:250 - Job a16c3c05-9d24-4665-bd8f-71cbaab14db8 RECEIVED:  18                  -1  1    123648  ultralytics.nn.modules.block.C2f             [192, 128, 1]                 
2026-04-11 09:35:14 | INFO     | services.job_manager:250 - Job a16c3c05-9d24-4665-bd8f-71cbaab14db8 RECEIVED:  19                  -1  1    147712  ultralytics.nn.modules.conv.Conv             [128, 128, 3, 2]              
2026-04-11 09:35:14 | INFO     | services.job_manager:250 - Job a16c3c05-9d24-4665-bd8f-71cbaab14db8 RECEIVED:  20             [-1, 9]  1         0  ultralytics.nn.modules.conv.Concat           [1]                           
2026-04-11 09:35:14 | INFO     | services.job_manager:250 - Job a16c3c05-9d24-4665-bd8f-71cbaab14db8 RECEIVED:  21                  -1  1    493056  ultralytics.nn.modules.block.C2f             [384, 256, 1]                 
2026-04-11 09:35:14 | INFO     | services.job_manager:250 - Job a16c3c05-9d24-4665-bd8f-71cbaab14db8 RECEIVED:  22        [15, 18, 21]  1    751507  ultralytics.nn.modules.head.Detect           [1, 16, None, [64, 128, 256]] 
2026-04-11 09:35:14 | INFO     | services.job_manager:250 - Job a16c3c05-9d24-4665-bd8f-71cbaab14db8 RECEIVED: Model summary: 130 layers, 3,011,043 parameters, 3,011,027 gradients, 8.2 GFLOPs
2026-04-11 09:35:14 | INFO     | services.job_manager:250 - Job a16c3c05-9d24-4665-bd8f-71cbaab14db8 RECEIVED: 
2026-04-11 09:35:14 | INFO     | services.job_manager:250 - Job a16c3c05-9d24-4665-bd8f-71cbaab14db8 RECEIVED: Transferred 319/355 items from pretrained weights
…
