…
w=False, show_boxes=True, show_conf=True, show_labels=True, simplify=True, single_cls=False, source=None, split=val, stream_buffer=False, task=detect, time=None, tracker=botsort.yaml, translate=0.1, val=True, verbose=True, vid_stride=1, visualize=False, warmup_bias_lr=0.1, warmup_epochs=3.0, warmup_momentum=0.8, weight_decay=0.0005, workers=8, workspace=None",
      "Overriding model.yaml nc=80 with nc=1",
      "",
      "                   from  n    params  module                                       arguments                     ",
      "  0                  -1  1       464  ultralytics.nn.modules.conv.Conv             [3, 16, 3, 2]                 ",
      "  1                  -1  1      4672  ultralytics.nn.modules.conv.Conv             [16, 32, 3, 2]                ",
      "  2                  -1  1      7360  ultralytics.nn.modules.block.C2f             [32, 32, 1, True]             ",
      "  3                  -1  1     18560  ultralytics.nn.modules.conv.Conv             [32, 64, 3, 2]                ",
      "  4                  -1  2     49664  ultralytics.nn.modules.block.C2f             [64, 64, 2, True]             ",
      "  5                  -1  1     73984  ultralytics.nn.modules.conv.Conv             [64, 128, 3, 2]               ",
      "  6                  -1  2    197632  ultralytics.nn.modules.block.C2f             [128, 128, 2, True]           ",
      "  7                  -1  1    295424  ultralytics.nn.modules.conv.Conv             [128, 256, 3, 2]              ",
      "  8                  -1  1    460288  ultralytics.nn.modules.block.C2f             [256, 256, 1, True]           ",
      "  9                  -1  1    164608  ultralytics.nn.modules.block.SPPF            [256, 256, 5]                 ",
      " 10                  -1  1         0  torch.nn.modules.upsampling.Upsample         [None, 2, 'nearest']          ",
      " 11             [-1, 6]  1         0  ultralytics.nn.modules.conv.Concat           [1]                           ",
      " 12                  -1  1    148224  ultralytics.nn.modules.block.C2f             [384, 128, 1]                 ",
      " 13                  -1  1         0  torch.nn.modules.upsampling.Upsample         [None, 2, 'nearest']          ",
      " 14             [-1, 4]  1         0  ultralytics.nn.modules.conv.Concat           [1]                           ",
      " 15                  -1  1     37248  ultralytics.nn.modules.block.C2f             [192, 64, 1]                  ",
      " 16                  -1  1     36992  ultralytics.nn.modules.conv.Conv             [64, 64, 3, 2]                ",
      " 17            [-1, 12]  1         0  ultralytics.nn.modules.conv.Concat           [1]                           ",
      " 18                  -1  1    123648  ultralytics.nn.modules.block.C2f             [192, 128, 1]                 ",
      " 19                  -1  1    147712  ultralytics.nn.modules.conv.Conv             [128, 128, 3, 2]              ",
      " 20             [-1, 9]  1         0  ultralytics.nn.modules.conv.Concat           [1]                           ",
      " 21                  -1  1    493056  ultralytics.nn.modules.block.C2f             [384, 256, 1]                 ",
      " 22        [15, 18, 21]  1    751507  ultralytics.nn.modules.head.Detect           [1, 16, None, [64, 128, 256]] ",
      "Model summary: 130 layers, 3,011,043 parameters, 3,011,027 gradients, 8.2 GFLOPs",
      "",
      "Transferred 319/355 items from pretrained weights",
      "Freezing layer 'model.22.dfl.conv.weight'",
      "\u001b[34m\u001b[1mAMP: \u001b[0mrunning Automatic Mixed Precision (AMP) checks...",
      "\u001b[34m\u001b[1mAMP: \u001b[0mchecks passed ",
      "\u001b[34m\u001b[1mtrain: \u001b[0mFast image access  (ping: 0.00.0 ms, read: 5.11.3 MB/s, size: 3.2 KB)",
…
